models/pytorch/pytorch_model.pkl (torch, 815519 bytes, 4 tensors)

1.weight f4 [256, 784]
0.028276443 0.056555107 -0.06728399 -0.060833998 -0.038795236 0.037615493 -0.009500042 -0.010790326
0.05967848 0.0135534555 -0.07164191 0.06270811 0.021680027 -0.031231038 -0.027900677 -0.049489647
-0.036837805 0.0054724216 -0.0066953897 0.016890824 -0.016169 -0.04237115 -0.04114916 0.047718517
-0.05831784 0.023243375 -0.048080027 0.01779899 0.031041019 0.05151719 0.030541196 0.002605252
-0.051249526 0.02955851 0.052678958 0.07167634 -0.059613027 0.031150453 -0.040571287 -0.0017363671
-0.04215478 -0.14156377 -0.11299916 -0.07522281 0.45069993 0.08835279 -0.046598613 -0.026759326
-0.063440375 0.011880301 -0.035362784 0.010204092 -0.039688528 0.0752396 -0.009342082 -0.028063968
-0.0076461285 0.029917173 0.0073953047 0.29181215 0.25866985 -0.07079979 -0.16327032 0.13024311
-0.043793976 -0.16456701 -0.08268718 -0.29548466 -0.15159048 0.062009186 0.07300744 0.045261648
-0.12332783 -0.08457516 -0.07519814 -0.14393707 -0.10998087 -0.020553995 -0.0052801245 -0.05179347
-0.15122007 -0.18402527 -0.027633142 -0.014731474 -0.021711886 0.011501506 -0.067830354 0.33771223
0.060363356 -0.15797783 -0.13888228 -0.098677576 -0.13959302 -0.16906208 -0.050843246 0.5549467
0.4924571 0.07595246 -0.2748074 -0.15811704 -0.21796829 -0.20979205 -0.25387534 -0.46641365
-0.60706866 -0.14279515 -0.4773794 -0.40726203 -0.6326271 -0.14129812 0.076914765 -0.0077863634
0.051119223 0.026052631 -0.02590844 -0.0214857 -0.091671444 -0.053806927 -0.18061025 -0.25635713
-0.2791507 -0.1747213 -0.20348991 -0.027252499 0.03376898 -0.09591633 -0.06936145 -0.22422105
-0.30138826 -0.20608915 -0.39586672 -0.52711684 -0.6589831 -0.5897123 -0.48233768 -0.23240484
-0.17045696 0.26560432 0.35828957 0.042442743 0.05528049 0.039038055 -0.001910828 -0.06870532
-0.10545596 -0.0849729 -0.1631685 -0.24132131 -0.15788157 -0.11146191 -0.24786499 0.030859688
-0.10851099 -0.033637475 -0.049306355 -0.5551276 -0.4696677 -0.3889161 -0.6559347 -0.5080105
-0.33246443 -0.48042974 -0.3359164 -0.33961046 -0.20948277 0.046071827 0.4057762 0.06624664
-0.03358498 -0.2229009 0.20351948 -0.061137177 0.046735812 0.031005811 -0.16864856 -0.29624313
-0.21035396 0.0013000072 0.039970927 0.09749861 -0.042563155 -0.03553516 -0.050101865 -0.16688053
-0.40220064 -0.5217615 -0.36689827 -0.27723122 -0.120414965 -0.20813468 -0.07961988 0.002532086
-0.14065014 -0.1196494 0.13698135 0.06506452 0.15023771 -0.015875252 0.17093273 0.020038998
0.046212897 -0.14499985 -0.15479021 -0.25743964 -0.3406557 0.04332837 0.18687372 0.20837067
0.1139687 -0.07773676 -0.08565735 -0.07186122 -0.050518386 -0.1516339 -0.23699315 -0.28315297
-0.1021029 0.09850969 0.15771812 0.20274557 -0.037870154 -0.0034697736 0.20824562 0.117585115
0.16910616 -0.23117174 0.17658345 0.11164813 0.054268464 -0.29459003 -0.14954507 -0.1813006
-0.3032631 -0.25918764 -0.07792048 0.027651938 0.19237092 0.017722 -0.13318217 0.1420004
0.1940204 0.3703077 0.3489633 0.4039827 0.54907453 0.64895827 0.4291899 0.49753264
0.724385 0.44854367 0.110675044 0.21097817 -0.14051937 0.15963787 0.08268798 0.10649318
00000000: 00a4 e73c 54a6 673d 30cc 89bd 122d 79bd
00000010: c1e7 1ebd b412 1a3d 10a6 1bbc e8c9 30bc
00000020: 6c71 743d 500f 5e3c feb8 92bd 1c6d 803d
00000030: 509a b13c 3cd8 ffbc f68f e4bc a8b5 4abd
00000040: 3de3 16bd 0052 b33b 0065 dbbb a05e 8a3c
00000050: da74 84bc 5f8d 2dbd 068c 28bd 7e74 433d
00000060: b0de 6ebd e468 be3c 90ef 44bd 30cf 913c
00000070: bc49 fe3c b003 533d 8831 fa3c e0bc 2a3b
00000080: 06eb 51bd b024 f23c e4c5 573d 0ccb 923d
00000090: ca2c 74bd 3c2f ff3c 142e 26bd d096 e3ba
000000a0: 7eaa 2cbd 18f6 10be 1b6c e7bd 6b0e 9abd
000000b0: 24c2 e63e 4ff2 b43d 30de 3ebd 6036 dbbc
000000c0: 07ed 81bd 98a5 423c 91d8 10bd 102f 273c
000000d0: 7090 22bd 3817 9a3d 880f 19bc 68e6 e5bc
000000e0: 608c fabb dc14 f53c 5054 f23b 6768 953e
000000f0: 6070 843e 7bff 90bd 5630 27be 735e 053e
00000100: 5061 33bd 4184 28be e557 a9bd c449 97be
00000110: 893a 1bbe 58fd 7d3d ed84 953d 4764 393d
00000120: 4d93 fcbd be35 adbd 7c01 9abd 3d64 13be
00000130: a63d e1bd da60 a8bc e504 adbb 6425 54bd
00000140: 6fd9 1abe 1f71 3cbe e65e e2bc 485c 71bc
00000150: 20dd b1bc d070 3c3c a4ea 8abd 9ee8 ac3e
00000160: 913f 773d f1c4 21be 2837 0ebe 7817 cabd
00000170: 79f1 0ebe 9c1e 2dbe 0241 50bd fd10 0e3f
00000180: 5623 fc3e f78c 9b3d 8eb3 8cbe 6fe9 21be
00000190: 1433 5fbe bad3 56be f3fb 81be c5cd eebe
000001a0: da68 1bbf e438 12be 136b f4be a684 d0be
000001b0: daf3 21bf 74b0 10be 7d85 9d3d c024 ffbb
000001c0: 6462 513d 546c d53c f03d d4bc c702 b0bc
000001d0: 3dbe bbbd a764 5cbd e5f1 38be 3e41 83be
000001e0: d7ec 8ebe 24ea 32be a95f 50be a240 dfbc
000001f0: 5851 0a3d c86f c4bd 600d 8ebd 349a 65be
00000200: 904f 9abe 0909 53be 0baf cabe 21f1 06bf
00000210: 1eb3 28bf 63f7 16bf f7f4 f6be 89fb 6dbe
00000220: 458c 2ebe 4afd 873e bb71 b73e 71d8 2d3d
00000230: cc6d 623d 5ee6 1f3d c074 faba 60b5 8cbd
00000240: 4bf9 d7bd 4606 aebd a515 27be ef1c 77be
00000250: b5ab 21be 2446 e4bd 52d0 7dbe 75cd fc3c
00000260: 033b debd 73c7 09bd 76f5 49bd d81c 0ebf
00000270: 4978 f0be 0320 c7be 56eb 27bf fa0c 02bf
00000280: c738 aabe e3fa f5be 3cfd abbe 6ce1 adbe
00000290: a782 56be d0b5 3c3d e6c1 cf3e 52ac 873d
000002a0: 6790 09bd 2240 64be 6967 503e fa6a 7abd
000002b0: 0d6e 3f3d e6ff fd3c 35b2 2cbe 2ead 97be
000002c0: 0767 57be 0165 aa3a 8eb8 233d 5aad c73d
000002d0: b456 2ebd 518d 11bd 9d37 4dbd bbe2 2abe
000002e0: 3eed cdbe 2992 05bf 17da bbbe 40f1 8dbe
000002f0: 1f9c f6bd 4221 55be bf0f a3bd 5bf1 253b
00000300: 9706 10be bf0a f5bd d744 0c3e 8c40 853d
00000310: ead7 193e d10c 82bc fd08 2f3e d328 a43c
00000320: bc49 3d3d d77a 14be 5381 1ebe 21cf 83be
00000330: 6d6a aebe 1779 313d d35b 3f3e 1f5f 553e
00000340: 6c68 e93d 7334 9fbd 1f6d afbd fa2b 93bd
00000350: 5eec 4ebd eb45 1bbe 55ae 72be 6df9 90be
00000360: 531b d1bd 73bf c93d dc80 213e 899c 4f3e
00000370: bc1d 1bbd 2465 63bb 573e 553e 77d0 f03d
00000380: 2a2a 2d3e 49b8 6cbe 4bd2 343e c6a7 e43d
00000390: 9c48 5e3d 81d4 96be 5822 19be dda6 39be
000003a0: 4d45 9bbe 3eb4 84be c694 9fbd 5186 e23c
000003b0: e2fc 443e ba2d 913c e860 08be 8e68 113e
000003c0: 49ad 463e f998 bd3e 51ab b23e d2d6 ce3e
000003d0: 2690 0c3f 2122 263f c7be db3e 99bc fe3e
000003e0: 4c71 393f 84a7 e53e 99a9 e23d a90a 583e
000003f0: 4fe4 0fbe 1c78 233e 5158 a93d 1919 da3d

1.bias f4 [256]
0.2075459 0.011839856 -0.12679331 -0.27341655 -0.07061449 -0.11131265 0.06367127 -0.10564852
0.046869166 -0.14587556 -0.1754375 -0.17646143 -0.19963188 0.0051248744 0.6329543 -0.2108101
-0.20044468 -0.006925148 -0.12939645 -0.23117429 -0.094401464 -0.018594481 -0.02675971 -0.1297867
-0.028908676 -0.13079211 -0.13310297 -0.029475667 -0.20451392 -0.17940171 -0.30156064 -0.11687944
-0.19847809 0.24821572 -0.20741561 -0.12994923 -0.16194 -0.10693975 -0.13802896 -0.11777177
0.061425973 -0.08741139 -0.009641117 -0.04713149 -0.1608738 -0.12673366 -0.084193505 -0.04195816
-0.06382283 -0.21944949 0.14861307 -0.27799648 -0.144374 -0.059803586 -0.06997004 0.016916417
-0.03921079 -0.011560593 -0.03229135 0.044188835 -0.0067748325 -0.046521127 -0.08860572 -0.06971949
-0.13053553 -0.033064872 -0.007487626 -0.00066980213 -0.0136497095 -0.15977612 -0.14505221 -0.31144926
-0.13969497 0.0019977242 -0.122152 -0.19424453 0.08719267 -0.16401398 0.07822656 -0.18780063
0.08977459 -0.035984848 -0.1288995 -0.09663997 -0.093500584 -0.099000834 0.030177493 -0.17073515
0.02731655 -0.18897346 -0.023522774 -0.06659751 0.16170098 -0.15802342 -0.08777355 -0.18684149
-0.120830595 0.025546357 0.08779911 0.024534855 -0.22482646 -0.08563502 -0.13071015 -0.099301
0.19207734 -0.13022342 -0.06935562 0.007166625 0.06561754 -0.119946904 -0.10885934 -0.12522998
-0.0061914288 -0.032860592 0.42247912 0.0024566299 0.1851171 -0.13162641 0.1273753 0.016452948
-0.07738795 0.037326872 -0.03526115 -0.14648236 -0.029263247 -0.045846447 -0.20109141 -0.03195057
-0.1073339 -0.02650655 -0.31511799 -0.022407372 -0.05193425 0.016052898 -0.10090215 0.0024380072
0.034211013 -0.12984219 -0.12786813 -0.00069088256 -0.040126126 -0.10447416 -0.09576059 -0.1283165
-0.07124953 -0.10611543 -0.10588468 0.032485507 0.009277016 -0.12804672 -0.18918805 -0.057637487
-0.025906485 -0.19992587 -0.09429665 -0.030059896 -0.013379874 -0.036761492 -0.13196951 -0.17193565
-0.03217806 0.32828298 -0.064822584 -0.027933765 -0.09287862 0.037585806 -0.10440487 -0.115075424
-0.173805 -0.031985503 -0.119963445 0.028342556 -0.0036470518 -0.30609497 -0.28889167 0.0037191429
-0.1260199 0.05146105 -0.027057378 -0.014923267 0.068184525 -0.100610875 0.031199241 -0.11590618
-0.18498194 -0.02584179 0.011363207 -0.14403747 -0.017171415 -0.13111408 -0.11367076 0.005624061
-0.030595582 -0.04943157 -0.21650665 -0.0019595325 0.03126054 0.18262203 -0.10116203 0.0336622
-0.014036012 -0.12593673 -0.114031725 -0.064732075 0.21413125 -0.10481038 -0.17822932 -0.0733329
-0.00107767 0.08008904 -0.1066321 0.08920808 -0.084104225 -0.09760713 0.016806893 -0.089035526
-0.1331516 -0.084366806 0.09474715 0.01789526 0.040646344 -0.1352844 -0.12108835 -0.10700853
-0.038362034 -0.106764734 0.05507056 -0.02898772 -0.07538264 -0.108767636 -0.038886398 -0.06916262
-0.07615089 -0.070628665 -0.069533005 0.058658272 0.03786025 0.015141822 -0.06811221 -0.059769932
0.021580013 -0.11239256 -0.031105299 -0.2777459 -0.09394394 -0.06727377 -0.12994814 -0.003685397
0.033031784 -0.009023836 0.204716 -0.1522979 -0.17604902 -0.006776495 0.16383494 0.07780069
00000000: ea86 543e f5fb 413c 1bd6 01be 41fd 8bbe
00000010: 549e 90bd e3f7 e3bd 1566 823d 405e d8bd
00000020: e2f9 3f3d 6760 15be e3a5 33be 4eb2 34be
00000030: 4d6c 4cbe 90ee a73b 4b09 223f 9ade 57be
00000040: 5f41 4dbe 5aec e2bb 8180 04be f4b8 6cbe
00000050: 8e55 c1bd 7453 98bc 2e37 dbbc cee6 04be
00000060: e3d1 ecbc 5eee 05be 254c 08be f476 f1bc
00000070: 196c 51be 15b5 37be 2866 9abe 7d5e efbd
00000080: d73d 4bbe 432c 7e3e c264 54be 6911 05be
00000090: 99d3 25be 3a03 dbbd 7757 0dbe 5332 f1bd
000000a0: cd99 7b3d be04 b3bd c7f5 1dbc f30c 41bd
000000b0: 1abc 24be 78c6 01be a56d acbd 52dc 2bbd
000000c0: 8bb5 82bd 5eb7 60be 062e 183e 8e55 8ebe
000000d0: c7d6 13be 9bf4 74bd 744c 8fbd 4c94 8a3c
000000e0: 7e9b 20bd a468 3dbc ef43 04bd 5aff 343d
000000f0: 6aff ddbb f08c 3ebd ea76 b5bd 18c9 8ebd
00000100: 1bab 05be 086f 07bd c25a f5bb a995 2fba
00000110: 08a3 5fbc 5a9c 23be 9188 14be 4776 9fbe
00000120: 330c 0fbe 40ec 023b d42a fabd 0ae8 46be
00000130: 1292 b23d 48f3 27be 3f35 a03d cf4e 40be
00000140: bedb b73d d964 13bd 3bfe 03be 2deb c5bd
00000150: 3c7d bfbd f3c0 cabd ca36 f73c 32d5 2ebe
00000160: f5c6 df3c 4282 41be d5b2 c0bc 4664 88bd
00000170: f194 253e e4d0 21be 9ec2 b3bd 6053 3fbe
00000180: 0876 f7bd 9846 d13c 05d0 b33d 52fd c83c
00000190: e838 66be 6a61 afbd e2d8 05be 535e cbbd
000001a0: ecaf 443e 4a59 05be 520a 8ebd 02d6 ea3b
000001b0: 7d62 863d b9a6 f5bd a5f1 debd 4a3c 00be
000001c0: 78e1 cabb d498 06bd 2f4f d83e 69ff 203b
000001d0: 568f 3d3e 13c9 06be ac6e 023e 55c8 863c
000001e0: 937d 9ebd 10e4 183d ff6d 10bd 79ff 15be
000001f0: 7ab9 efbc 7cc9 3bbd e8ea 4dbe 9ade 02bd
00000200: e0d1 dbbd 4424 d9bc 2557 a1be aa8f b7bc
00000210: 02b9 54bd 5e81 833c c9a5 cebd f9c6 1f3b
00000220: d920 0c3d 5af5 04be ddef 02be 581c 35ba
00000230: 4b5b 24bd 8cf6 d5bd 211e c4bd 6765 03be
00000240: 46eb 91bd 0c53 d9bd 11da d8bd 860f 053d
00000250: a0fe 173c ae1e 03be 83ba 41be 4915 6cbd
00000260: d639 d4bc 5eb9 4cbe 9a1e c1bd 2c40 f6bc
00000270: 4237 5bbc 3893 16bd 0423 07be e60f 30be
00000280: 24cd 03bd b514 a83e b4c1 84bd 5ad5 e4bc
00000290: 2537 bebd 93f3 193d 38d2 d5bd aaac ebbd
000002a0: f0f9 31be 3b03 03bd 65af f5bd a62e e83c
000002b0: 6003 6fbb 7bb8 9cbe 9ce9 93be ddbc 733b
000002c0: 5c0b 01be d2c8 523d 6fa7 ddbc b880 74bc
000002d0: 54a4 8b3d 130d cebd 8d95 ff3c 3860 edbd
000002e0: e86b 3dbe 29b2 d3bc bf2c 3a3c 8f7e 13be
000002f0: 11ab 8cbc c542 06be 37cc e8bd 0b4a b83b
00000300: 96a3 fabc c278 4abd ebb3 5dbe 806b 00bb
00000310: 0d0b 003d 4501 3b3e 0a2e cfbd 60e1 093d
00000320: 4df7 65bc 8ff5 00be 7789 e9bd 4092 84bd
00000330: 3945 5b3e d3a6 d6bd bf81 36be 8f2f 96bd
00000340: 9b40 8dba b905 a43d ee61 dabd bab2 b63d
00000350: d63e acbd 3fe6 c7bd 9cae 893c 4258 b6bd
00000360: e558 08be 81c8 acbd cb0a c23d 1599 923c
00000370: c87c 263d fe87 0abe 2bfd f7bd 4a27 dbbd
00000380: 8221 1dbd 78a7 dabd ab91 613d a877 edbc
00000390: 3762 9abd 91c1 debd 5847 1fbd 22a5 8dbd
000003a0: fff4 9bbd c3a5 90bd 5267 8ebd a843 703d
000003b0: 5913 1b3d 6815 783c 6a7e 8bbd 51d1 74bd
000003c0: 91c8 b03c 122e e6bd 8ad0 febc b634 8ebe
000003d0: ae65 c0bd d5c6 89bd 2011 05be b486 71bb
000003e0: 564c 073d b6d8 13bc 12a1 513e fbf3 1bbe
000003f0: 3246 34be 5c0d debb 59c4 273e f855 9f3d

3.weight f4 [10, 256]
-0.037891444 0.048243944 -0.0044577345 0.088951096 0.012977913 -0.0017544031 0.3307772 -0.17445706
-0.07601536 -0.03305174 -0.038370945 0.27406213 0.12003582 -0.09957667 0.16911486 -0.03296514
0.2892421 -0.12618637 0.024610147 0.011229228 -0.01290787 0.1978961 -0.017825775 -0.24542415
0.014189743 0.0015856773 -0.23957446 0.33371872 -0.09912624 -0.16723204 -0.01752178 0.028368464
-0.10372618 -0.76778513 0.08902056 -0.15154915 0.21225327 0.33140567 -0.25593567 0.22927283
0.017430164 0.010731325 -0.07774201 0.10392582 0.29796672 -0.114437334 -0.5405569 -0.14265057
0.28766555 0.16987377 -0.2145965 0.06051183 0.44028068 0.47205707 -0.056247212 0.35859793
-0.48279536 -0.062177252 0.06499187 -0.2668465 -0.013977757 -0.29783994 -0.43485117 -0.03059978
-0.23278269 -0.13418892 0.034272052 0.38825196 -0.08458447 -0.22469805 0.00802173 0.012657821
0.19237258 -0.02790618 0.006966822 -0.19837013 -0.049046986 0.06303959 0.16000262 -0.29701215
0.4172333 0.07037289 0.07144302 -0.0144185 -0.024371713 -0.16597292 0.08028538 0.24727792
0.055041492 0.21012087 0.110298425 -0.17650586 -0.03864149 -0.013252849 0.043849878 -1.2038732
-0.155547 0.020499028 -0.019434642 -0.045251433 -0.13311943 0.041940287 -0.19361039 0.39892554
0.009582345 -0.029328011 0.25827837 0.19306473 0.0388179 0.08665185 -0.14237982 -0.14079925
-0.111537054 -0.029685872 -0.05795231 0.37761894 -1.2034347 -0.2063143 -0.4267462 -0.119477876
0.033148043 0.44467953 0.044639733 -0.16304657 0.076667435 0.29398426 0.13998264 0.19451955
0.08923231 -0.037181847 -0.055255026 0.13273484 0.14136852 -0.10958169 0.32350525 0.41737092
0.09346244 -0.24543686 -0.110057615 -0.005303015 -0.16619235 0.024016492 -0.04441499 0.009075984
0.14361468 -0.078396104 0.19136739 0.09326177 -0.12799063 0.16804002 0.18419938 -0.3599768
0.12377643 -0.788912 0.024875648 0.20292144 -0.25578755 0.47675398 -0.036306463 -0.16124827
-0.10270407 -0.26677427 -0.12063384 -0.1493687 0.2003307 -0.08753554 -0.06639076 0.031626355
0.020969996 0.17981024 0.0010315678 0.001088896 -0.036413133 -0.16572304 -0.06756552 -0.23782623
0.037282698 -0.102636166 0.21353455 -0.027388193 0.023941483 0.10281676 -0.2216147 -0.07174898
0.045743454 0.028841222 -0.057344954 0.045009393 0.30349213 -0.005698286 -0.07002832 -0.13328211
0.40512258 -0.1394867 -0.06288283 -0.06248138 0.24463454 0.22212783 0.15816534 0.33621976
0.036370084 -0.12210692 0.2348488 -0.046225823 0.076779485 0.00049157446 0.01822687 -0.033232894
0.024212068 -0.13699427 0.026649788 0.24366337 -0.24295522 -0.007538369 -0.012832079 -0.024504304
0.22143663 -0.12819372 0.17651197 0.19958661 -0.17833535 0.0529571 -0.027695557 -0.16204709
0.2565482 -0.10767006 -0.41398686 0.13727316 0.091150396 -0.18071777 0.017250622 -0.11116986
-0.13700327 0.2808176 -0.04450816 0.07664604 0.049837846 -0.100829504 -0.12298114 -0.2095608
0.07313507 0.049153637 -0.1394099 0.2869204 -0.0215878 0.099105775 0.3959187 0.017475348
-0.03513503 -0.12948486 0.2519763 0.19879617 0.13016678 0.075220056 -0.2743574 -1.0917352
00000000: 0f34 1bbd 719b 453d 3012 92bb fe2b b63d
00000010: 50a1 543c 00f4 e5ba a15b a93e dfa4 32be
00000020: f1ad 9bbd 4361 07bd da2a 1dbd df51 8c3e
00000030: 57d5 f53d daee cbbd 722c 2d3e 7406 07bd
00000040: 8a17 943e 0037 01be 389b c93c ccfa 373c
00000050: 887b 53bc 46a5 4a3e 5c07 92bc 7850 7bbe
00000060: 197c 683c 80d6 cf3a 0253 75be 2edd aa3e
00000070: b302 cbbd e03e 2bbe d689 8fbc fb64 e83c
00000080: 646e d4bd 918d 44bf 6950 b63d b32f 1bbe
00000090: ec58 593e 01ae a93e 000a 83be 7fc6 6a3e
000000a0: b4c9 8e3c 70d2 2f3c 3437 9fbd 0fd7 d43d
000000b0: 188f 983e 1f5e eabd f061 0abf fe12 12be
000000c0: e648 933e 64f3 2d3e 2fbf 5bbe 41db 773d
000000d0: 786c e13e 77b1 f13e 7a63 66bd 269a b73e
000000e0: f430 f7be 93ad 7ebd 751a 853d 1ba0 88be
000000f0: f602 65bc 7a7e 98be d0a4 debe 64ac fabc
00000100: 965e 6ebe d268 09be da60 0c3d f6c8 c63e
00000110: 9f3a adbd 3f17 66be 936d 033c c062 4f3c
00000120: 51fd 443e 809b e4bc f049 e43b 8a21 4bbe
00000130: 7ee5 48bd e71a 813d bad7 233e fa11 98be
00000140: 9a9f d53e a91f 903d b850 923d 923b 6cbc
00000150: 30a7 c7bc cef4 29be a96c a43d 6c36 7d3e
00000160: 3073 613d ed29 573e 24e4 e13d f4bd 34be
00000170: 8a46 1ebd 7a22 59bc ee9b 333d 8418 9abf
00000180: b647 1fbe 94ed a73c 6635 9fbc 9159 39bd
00000190: 7650 08be 94c9 2b3d cd41 46be f83f cc3e
000001a0: 45ff 1c3c 4c41 f0bc 103d 843e c3b2 453e
000001b0: 85ff 1e3d 8676 b13d 04cc 11be ae2d 10be
000001c0: 8a6d e4bd c92f f3bc 675f 6dbd 4557 c13e
000001d0: 260a 9abf 0e44 53be 7a7e dabe d1b0 f4bd
000001e0: 3ec6 073d 09ad e33e 27d8 363d aef5 26be
000001f0: d103 9d3d 1b85 963e 9c57 0f3e 2230 473e
00000200: 6ebf b63d fe4b 18bd 1853 62bd a4eb 073e
00000210: e9c2 103e 5d6c e0bd 7ba2 a53e a4b1 d53e
00000220: 3c69 bf3d cd53 7bbe e365 e1bd eac4 adbb
00000230: 542e 2abe 3cbe c43c 7eec 35bd 70b3 143c
00000240: ba0f 133e 238e a0bd d0f5 433e 0700 bf3d
00000250: fa0f 03be af12 2c3e c39e 3c3e e14e b8be
00000260: 7f7e fd3d 23f6 49bf 04c8 cb3c a3ca 4f3e
00000270: 96f6 82be 1919 f43e 16b6 14bd 441e 25be
00000280: 8356 d2bd a396 88be e00e f7bd 1cf4 18be
00000290: 7e23 4d3e d545 b3bd e1f7 87bd a38a 013d
000002a0: 45c9 ab3c 2d20 383e ac35 873a 49b9 8e3a
000002b0: f025 15bd 4db3 29be cb5f 8abd b888 73be
000002c0: beb5 183d e932 d2bd cda8 5a3e 345d e0bc
000002d0: ee20 c43c 9891 d23d f7ee 62be 21f1 92bd
000002e0: 7d5d 3b3d 6d44 ec3c 8be2 6abd c55b 383d
000002f0: 5263 9b3e b0b8 babb 026b 8fbd 1b7b 08be
00000300: 3a6c cf3e 9ad5 0ebe b7c8 80bd 7aec 7fbd
00000310: 7a81 7a3e 7a75 633e 18f6 213e ff24 ac3e
00000320: ccf8 143d 3113 fabd 347c 703e 4a57 3dbd
00000330: 903e 9d3d 01dd 003a 8450 953c 371f 08bd
00000340: 6358 c63c 3a48 0cbe a850 da3c e482 793e
00000350: 41c9 78be 6c04 f7bb a43d 52bc 40bd c8bc
00000360: 49c0 623e 3745 03be 8ebf 343e 6f60 4c3e
00000370: 8b9d 36be 8be9 583d cbe1 e2bc acef 25be
00000380: 495a 833e 1f82 dcbd 16f6 d3be 5691 0c3e
00000390: 0fad ba3d 140e 39be 2d51 8d3c 06ad e3bd
000003a0: 964a 0cbe 53c7 8f3e 304e 36bd 99f8 9c3d
000003b0: c522 4c3d b37f cebd 89dd fbbd 1b97 56be
000003c0: d7c7 953d 5355 493d 78c1 0ebe 3be7 923e
000003d0: e6d8 b0bc f8f7 ca3d dbb5 ca3e 7628 8f3c
000003e0: c0e9 0fbd ae97 04be 0a03 813e 3991 4b3e
000003f0: 714a 053e f90c 9a3d 9378 8cbe fbbd 8bbf

3.bias f4 [10]
-0.036496427 -0.15160666 0.23942766 0.026450228 0.21691355 0.02047677 -0.10431912 0.0032091304
0.42740786 0.22804573
00000000: 477d 15bd c73e 1bbe 862c 753e 26ae d83c
00000010: 961e 5e3e e6be a73c 43a5 d5bd 4650 523b
00000020: 34d5 da3e d284 693e
